…
      "photoUrl": "https://lh3.googleusercontent.com/a-/AOh14Gi7aKccuHx72YbMYNeRHdjDQpTsUo70qhLPVvpg=s64",
      "userId": "02246152154574898479"
     },
     "user_tz": -330
    },
    "id": "mL-uw-UvTRHr",
    "outputId": "8fe20bc6-6629-4e96-8344-2740e9eb58af"
   },
   "outputs": [
    {
     "name": "stdout",
     "output_type": "stream",
     "text": [
      "Model: \"sequential\"\n",
      "_________________________________________________________________\n",
      "Layer (type)                 Output Shape              Param #   \n",
      "=================================================================\n",
      "conv2d (Conv2D)              (None, 348, 348, 16)      448       \n",
      "_________________________________________________________________\n",
      "batch_normalization (BatchNo (None, 348, 348, 16)      64        \n",
      "_________________________________________________________________\n",
      "max_pooling2d (MaxPooling2D) (None, 174, 174, 16)      0         \n",
      "_________________________________________________________________\n",
      "dropout (Dropout)            (None, 174, 174, 16)      0         \n",
      "_________________________________________________________________\n",
      "conv2d_1 (Conv2D)            (None, 172, 172, 32)      4640      \n",
      "_________________________________________________________________\n",
      "batch_normalization_1 (Batch (None, 172, 172, 32)      128       \n",
      "_________________________________________________________________\n",
      "max_pooling2d_1 (MaxPooling2 (None, 86, 86, 32)        0         \n",
      "_________________________________________________________________\n",
      "dropout_1 (Dropout)          (None, 86, 86, 32)        0         \n",
      "_________________________________________________________________\n",
      "conv2d_2 (Conv2D)            (None, 84, 84, 64)        18496     \n",
      "_________________________________________________________________\n",
      "batch_normalization_2 (Batch (None, 84, 84, 64)        256       \n",
      "_________________________________________________________________\n",
      "max_pooling2d_2 (MaxPooling2 (None, 42, 42, 64)        0         \n",
      "_________________________________________________________________\n",
      "dropout_2 (Dropout)          (None, 42, 42, 64)        0         \n",
      "_________________________________________________________________\n",
      "conv2d_3 (Conv2D)            (None, 40, 40, 128)       73856     \n",
      "_________________________________________________________________\n",
      "batch_normalization_3 (Batch (None, 40, 40, 128)       512       \n",
      "_________________________________________________________________\n",
      "max_pooling2d_3 (MaxPooling2 (None, 20, 20, 128)       0         \n",
      "_________________________________________________________________\n",
      "dropout_3 (Dropout)          (None, 20, 20, 128)       0         \n",
      "_________________________________________________________________\n",
      "flatten (Flatten)            (None, 51200)             0         \n",
      "_________________________________________________________________\n",
      "dense (Dense)                (None, 128)               6553728   \n",
      "_________________________________________________________________\n",
      "batch_normalization_4 (Batch (None, 128)               512       \n",
      "_________________________________________________________________\n",
      "dropout_4 (Dropout)          (None, 128)               0         \n",
      "_________________________________________________________________\n",
      "dense_1 (Dense)              (None, 128)               16512     \n",
      "_________________________________________________________________\n",
      "batch_normalization_5 (Batch (None, 128)               512       \n",
      "_________________________________________________________________\n",
      "dropout_5 (Dropout)          (None, 128)               0         \n",
      "_________________________________________________________________\n",
      "dense_2 (Dense)              (None, 25)                3225      \n",
      "=================================================================\n",
      "Total params: 6,672,889\n",
      "Trainable params: 6,671,897\n",
      "Non-trainable params: 992\n",
      "_________________________________________________________________\n"
     ]
    }
   ],
   "source": [
    "model.summary()"
   ]
  },
  {
   "cell_type": "code",
   "execution_count": 0,
   "metadata": {
…
